{
  "class_name": "Sequential",
  "config": {
    "name": "sequential_765",
    "layers": [
      {
        "class_name": "InputLayer",
        "config": {
          "batch_input_shape": [
            null,
            4,
            64,
            1
          ],
          "dtype": "float32",
          "sparse": false,
          "ragged": false,
          "name": "conv2d_3825_input"
        }
      },
      {
        "class_name": "Conv2D",
        "config": {
          "name": "conv2d_3825",
          "trainable": true,
          "batch_input_shape": [
            null,
            4,
            64,
            1
          ],
          "dtype": "float32",
          "filters": 64,
          "kernel_size": [
            4,
            5
          ],
          "strides": [
            1,
            1
          ],
          "padding": "valid",
          "data_format": "channels_last",
          "dilation_rate": [
            1,
            1
          ],
          "groups": 1,
          "activation": "relu",
          "use_bias": true,
          "kernel_initializer": {
            "class_name": "GlorotUniform",
            "config": {
              "seed": null
            }
          },
          "bias_initializer": {
            "class_name": "Zeros",
            "config": {}
          },
          "kernel_regularizer": null,
          "bias_regularizer": null,
          "activity_regularizer": null,
          "kernel_constraint": null,
          "bias_constraint": null
        }
      },
      {
        "class_name": "Conv2D",
        "config": {
          "name": "conv2d_3826",
          "trainable": true,
          "dtype": "float32",
          "filters": 32,
          "kernel_size": [
            1,
            5
          ],
          "strides": [
            1,
            1
          ],
          "padding": "valid",
          "data_format": "channels_last",
          "dilation_rate": [
            1,
            1
          ],
          "groups": 1,
          "activation": "relu",
          "use_bias": true,
          "kernel_initializer": {
            "class_name": "GlorotUniform",
            "config": {
              "seed": null
            }
          },
          "bias_initializer": {
            "class_name": "Zeros",
            "config": {}
          },
          "kernel_regularizer": null,
          "bias_regularizer": null,
          "activity_regularizer": null,
          "kernel_constraint": null,
          "bias_constraint": null
        }
      },
      {
        "class_name": "MaxPooling2D",
        "config": {
          "name": "max_pooling2d_2295",
          "trainable": true,
          "dtype": "float32",
          "pool_size": [
            1,
            2
          ],
          "padding": "valid",
          "strides": [
            1,
            2
          ],
          "data_format": "channels_last"
        }
      },
      {
        "class_name": "Conv2D",
        "config": {
          "name": "conv2d_3827",
          "trainable": true,
          "dtype": "float32",
          "filters": 32,
          "kernel_size": [
            1,
            5
          ],
          "strides": [
            1,
            1
          ],
          "padding": "valid",
          "data_format": "channels_last",
          "dilation_rate": [
            1,
            1
          ],
          "groups": 1,
          "activation": "relu",
          "use_bias": true,
          "kernel_initializer": {
            "class_name": "GlorotUniform",
            "config": {
              "seed": null
            }
          },
          "bias_initializer": {
            "class_name": "Zeros",
            "config": {}
          },
          "kernel_regularizer": null,
          "bias_regularizer": null,
          "activity_regularizer": null,
          "kernel_constraint": null,
          "bias_constraint": null
        }
      },
      {
        "class_name": "Conv2D",
        "config": {
          "name": "conv2d_3828",
          "trainable": true,
          "dtype": "float32",
          "filters": 16,
          "kernel_size": [
            1,
            5
          ],
          "strides": [
            1,
            1
          ],
          "padding": "valid",
          "data_format": "channels_last",
          "dilation_rate": [
            1,
            1
          ],
          "groups": 1,
          "activation": "relu",
          "use_bias": true,
          "kernel_initializer": {
            "class_name": "GlorotUniform",
            "config": {
              "seed": null
            }
          },
          "bias_initializer": {
            "class_name": "Zeros",
            "config": {}
          },
          "kernel_regularizer": null,
          "bias_regularizer": null,
          "activity_regularizer": null,
          "kernel_constraint": null,
          "bias_constraint": null
        }
      },
      {
        "class_name": "MaxPooling2D",
        "config": {
          "name": "max_pooling2d_2296",
          "trainable": true,
          "dtype": "float32",
          "pool_size": [
            1,
            2
          ],
          "padding": "valid",
          "strides": [
            1,
            2
          ],
          "data_format": "channels_last"
        }
      },
      {
        "class_name": "Conv2D",
        "config": {
          "name": "conv2d_3829",
          "trainable": true,
          "dtype": "float32",
          "filters": 16,
          "kernel_size": [
            1,
            5
          ],
          "strides": [
            1,
            1
          ],
          "padding": "valid",
          "data_format": "channels_last",
          "dilation_rate": [
            1,
            1
          ],
          "groups": 1,
          "activation": "relu",
          "use_bias": true,
          "kernel_initializer": {
            "class_name": "GlorotUniform",
            "config": {
              "seed": null
            }
          },
          "bias_initializer": {
            "class_name": "Zeros",
            "config": {}
          },
          "kernel_regularizer": null,
          "bias_regularizer": null,
          "activity_regularizer": null,
          "kernel_constraint": null,
          "bias_constraint": null
        }
      },
      {
        "class_name": "MaxPooling2D",
        "config": {
          "name": "max_pooling2d_2297",
          "trainable": true,
          "dtype": "float32",
          "pool_size": [
            1,
            2
          ],
          "padding": "valid",
          "strides": [
            1,
            2
          ],
          "data_format": "channels_last"
        }
      },
      {
        "class_name": "Flatten",
        "config": {
          "name": "flatten_765",
          "trainable": true,
          "dtype": "float32",
          "data_format": "channels_last"
        }
      },
      {
        "class_name": "Dense",
        "config": {
          "name": "dense_1530",
          "trainable": true,
          "dtype": "float32",
          "units": 64,
          "activation": "relu",
          "use_bias": true,
          "kernel_initializer": {
            "class_name": "GlorotUniform",
            "config": {
              "seed": null
            }
          },
          "bias_initializer": {
            "class_name": "Zeros",
            "config": {}
          },
          "kernel_regularizer": null,
          "bias_regularizer": null,
          "activity_regularizer": null,
          "kernel_constraint": null,
          "bias_constraint": null
        }
      },
      {
        "class_name": "Dense",
        "config": {
          "name": "dense_1531",
          "trainable": true,
          "dtype": "float32",
          "units": 5,
          "activation": "softmax",
          "use_bias": true,
          "kernel_initializer": {
            "class_name": "GlorotUniform",
            "config": {
              "seed": null
            }
          },
          "bias_initializer": {
            "class_name": "Zeros",
            "config": {}
          },
          "kernel_regularizer": null,
          "bias_regularizer": null,
          "activity_regularizer": null,
          "kernel_constraint": null,
          "bias_constraint": null
        }
      }
    ]
  },
  "keras_version": "2.4.0",
  "backend": "tensorflow"
}